…
true,"execution":{"iopub.status.busy":"2025-03-27T07:59:58.372085Z","iopub.execute_input":"2025-03-27T07:59:58.372391Z","iopub.status.idle":"2025-03-27T07:59:58.382405Z","shell.execute_reply.started":"2025-03-27T07:59:58.372368Z","shell.execute_reply":"2025-03-27T07:59:58.381575Z"}},"outputs":[{"execution_count":35,"output_type":"execute_result","data":{"text/plain":"IdeficsForVisionText2Text(\n  (model): IdeficsModel(\n    (embed_tokens): IdeficsDecoupledEmbedding(\n      num_embeddings=32000, num_additional_embeddings=3, embedding_dim=4096, partially_freeze=False\n      (additional_embedding): Embedding(3, 4096)\n    )\n    (vision_model): IdeficsVisionTransformer(\n      (embeddings): IdeficsVisionEmbeddings(\n        (patch_embedding): Conv2d(3, 1280, kernel_size=(14, 14), stride=(14, 14), bias=False)\n        (position_embedding): Embedding(257, 1280)\n      )\n      (pre_layrnorm): LayerNorm((1280,), eps=1e-05, elementwise_affine=True)\n      (encoder): IdeficsVisionEncoder(\n        (layers): ModuleList(\n          (0-31): 32 x IdeficsVisionEncoderLayer(\n            (self_attn): IdeficsVisionAttention(\n              (k_proj): Linear4bit(in_features=1280, out_features=1280, bias=True)\n              (v_proj): Linear4bit(in_features=1280, out_features=1280, bias=True)\n              (q_proj): Linear4bit(in_features=1280, out_features=1280, bias=True)\n              (out_proj): Linear4bit(in_features=1280, out_features=1280, bias=True)\n            )\n            (layer_norm1): LayerNorm((1280,), eps=1e-05, elementwise_affine=True)\n            (mlp): IdeficsVisionMLP(\n              (activation_fn): GELUActivation()\n              (fc1): Linear4bit(in_features=1280, out_features=5120, bias=True)\n              (fc2): Linear4bit(in_features=5120, out_features=1280, bias=True)\n            )\n            (layer_norm2): LayerNorm((1280,), eps=1e-05, elementwise_affine=True)\n          )\n        )\n      )\n      (post_layernorm): LayerNorm((1280,), eps=1e-05, elementwise_affine=True)\n    )\n    (perceiver_resampler): IdeficsPerceiverResampler(\n      (blocks): ModuleList(\n        (0-5): 6 x ModuleList(\n          (0): IdeficsPerceiverAttention(\n            (context_layer_norm): LayerNorm((1280,), eps=1e-05, elementwise_affine=True)\n            (latents_layer_norm): LayerNorm((1280,), eps=1e-05, elementwise_affine=True)\n            (q_layer_norm): LayerNorm((96,), eps=1e-05, elementwise_affine=True)\n            (k_layer_norm): LayerNorm((96,), eps=1e-05, elementwise_affine=True)\n            (q_proj): Linear4bit(in_features=1280, out_features=1536, bias=False)\n            (k_proj): Linear4bit(in_features=1280, out_features=1536, bias=False)\n            (v_proj): Linear4bit(in_features=1280, out_features=1536, bias=False)\n            (output_proj): Linear4bit(in_features=1536, out_features=1280, bias=False)\n          )\n          (1): IdeficsMLP(\n            (ln): LayerNorm((1280,), eps=1e-05, elementwise_affine=True)\n            (fc): Linear4bit(in_features=1280, out_features=5120, bias=False)\n            (act): ReLU()\n            (c_proj): Linear4bit(in_features=5120, out_features=1280, bias=False)\n          )\n        )\n      )\n      (layer_norm): LayerNorm((1280,), eps=1e-05, elementwise_affine=True)\n    )\n    (layers): ModuleList(\n      (0-31): 32 x IdeficsDecoderLayer(\n        (self_attn): IdeficsAttention(\n          (q_proj): Linear4bit(in_features=4096, out_features=4096, bias=False)\n          (k_proj): Linear4bit(in_features=4096, out_features=4096, bias=False)\n          (v_proj): Linear4bit(in_features=4096, out_features=4096, bias=Fals
…
